results/qd_mountaincar_20250421-164801/best_net.pt (torch, 17746 bytes, 2 tensors)

weights f8 [8, 2]
00000000: 8f62 309a 3455 b840 bf9f ceaa 16ca cf40
00000010: f7c7 a347 6934 7b40 3329 49d1 602c d2c0
00000020: d5b5 1e4d 1f0a d33f f977 2ceb 3661 b4c0
00000030: d916 7ad1 0024 b03f 4cab cdb1 4d90 8340
00000040: c1a7 1f38 9913 e1c0 81ad d3d8 eb97 d740
00000050: 7203 02c9 c9aa 8140 c853 a6d8 cd6c cbc0
00000060: 777c 2742 96d1 a73f af0e 2415 3bff 89c0
00000070: 78f1 aa2e d1aa 25c0 9488 ec50 e6a6 e840
6229.205477737486 16276.177087619782 435.27570308663365 -18609.512773790582 0.29749281436201375 -5217.214525965967 0.06304936517889405 626.0379367893124
-34972.78810103192 24159.68510906166 565.3485279233266 -14041.60817412463 0.046520896506756886 -831.9038489167195 -10.833627184264273 50487.197378412966

weights f8 [3, 8]
00000000: 8dab 4276 726c e740 49f3 a0b5 158d d740
00000010: e1d7 fa64 9639 db40 3559 2185 3517 cac0
00000020: 3ed5 2ab4 f834 f2c0 b31e fab6 ad70 e740
00000030: 4af0 8374 ba5a de40 fab2 31e3 686f d9c0
00000040: 7978 6b78 fc5f bcc0 4b73 9ab4 40da d5c0
00000050: 3091 b377 e392 bfbf 12a9 b438 b8bb bdbf
00000060: 9831 3c6c fdfb f4c0 0198 0284 2faa 9940
00000070: 9824 8950 5d1d c23f 04a9 f381 d5e6 e7c0
00000080: 0e8c 466a 318c ca40 0970 670f 483a bdc0
00000090: b012 54d4 7e2e 92c0 4ad0 7d8a 04e0 ad40
000000a0: 5d33 a8ad 8733 cb40 4af2 250d 9e81 96c0
000000b0: ee34 4a94 6aa2 a0c0 2ed2 c420 0e34 d840
47971.576936087666 24116.33921073683 27878.349913321323 -13358.418125313337 -74575.54398616121 48005.428586063346 31082.913361534745 -26045.638866829664
-7263.986212460434 -22377.01102315196 -0.12333509132765097 -0.11614562401215192 -85951.83892459271 1642.5464020161892 0.14152113373191777 -48950.67211325656
13592.38605577315 -7482.2814850472 -1163.6238568436056 3824.0088691059836 13927.059987092094 -1440.4043470315105 -2129.2081626119243 24784.220750050787
