results/qd_acrobot_20250409-150029/best_net.pt (torch, 23082 bytes, 2 tensors)

weights f8 [8, 6]
00000000: 6931 729b 2069 dec0 9d60 2a05 1f2b c140
00000010: d7e3 5afa df70 d740 65b2 9a5e 74af d240
00000020: b104 bc55 72e1 d7c0 5cb7 acab 065a 73c0
00000030: 27fe 3fdd cba0 b740 af13 5b3b 79c1 9ac0
00000040: e05d 65e6 9fbe c0c0 9829 5034 0620 b6c0
00000050: 5d3a e8e3 fa3b cc40 7da2 8167 0527 f9c0
00000060: ec39 5a9f 1041 c7c0 0fe9 a2b1 1bbe a540
00000070: e190 4815 f869 be40 e58a 6e08 a33d ba40
00000080: 1920 7047 0430 dbc0 f873 a4e7 6b4d cac0
00000090: 58e9 0c35 384d d6c0 0bd7 30b8 fd19 bb40
000000a0: 22d0 dab6 a67f c040 2388 2a58 477a b340
000000b0: fe51 5e25 1686 e240 3323 55b8 01db 0241
000000c0: 961a 2b05 1096 b8c0 a1b3 8535 73ee 2ac0
000000d0: 0a0a 3be7 8a20 a2c0 990f bbf5 edd5 a1c0
000000e0: 99e1 bee6 5c53 d040 41a5 4f14 7966 d9c0
000000f0: 8f86 1577 0ef6 bd40 07b7 4180 43ff 63c0
00000100: 80dd 7a5a 2aeb c3c0 6fc1 466c 6e63 b9c0
00000110: 938a 4c8d f380 ef40 650d dc3e c75d bd40
00000120: 4a4a f468 b6d2 b540 43ce c310 3db3 2b40
00000130: 216d 688d f3b8 c0c0 19a2 6761 151f b5c0
00000140: 1ac5 c91f e1c2 e240 f238 f920 93df d6c0
00000150: 29af af46 b0ca c2c0 c2cf f4e4 c8eb aac0
00000160: e518 4a3f 9228 a8c0 eb7b a063 c7d4 abc0
00000170: fc71 a625 1998 bfc0 01df 75ad 4684 fec0
-31140.509487674954 8790.24234513967 24003.499655458927 19133.81827418729 -24453.786482815343 -309.62662856547627 6048.79634475665 -1712.36839048679
-8573.249218626821 -5664.024235735087 14455.960080173967 -103024.33777011368 -11906.12986305073 2783.05408963294 7785.969074759837 6717.636847409162
-27840.066860228868 -13466.843006664873 -22836.878237941623 6937.991091778279 8447.302455283763 4986.278689058529 37936.69206157698 154464.2150061369
-6294.062578863135 -13.465722725459104 -2320.2712953996424 -2282.9647654015102 16717.45158359557 -26009.891864692097 7670.056504578925 -159.97698986849738
-10198.330886228709 -6499.431339666581 64519.6109984118 7517.778302911062 5586.712538974893 13.85007526769835 -8561.902752927099 -5407.083517529559
38423.03513039109 -23422.29888754426 -9621.37715717366 -3445.892371797906 -3092.2856391101254 -3562.389431967856 -8088.098230746105 -124996.41734873877

weights f8 [3, 8]
00000000: 8885 2eb7 0f02 e7c0 0bc6 af43 550e e840
00000010: 981c 8cec 1787 c7c0 8997 4d23 d1da ccc0
00000020: 5b58 19d1 48e7 d440 bc54 9ea0 e77e eb40
00000030: 6fce ac13 7bee e840 23a6 31df f894 db40
00000040: 6076 c7a3 9c07 c7c0 33c0 7d6c f4f1 d840
00000050: 26ed 95d8 b27d 9d40 26e8 ef0f 46cd e4c0
00000060: bb6d 635b 6b0d b240 cdfe 184b 32c3 78c0
00000070: d572 bfc7 ebf2 b540 d699 9f45 7f3e e040
00000080: 4b11 cabc d037 bf40 4cac 1cb7 5ebf e6c0
00000090: 0441 2173 a1dd ba40 11df 5c52 d172 d8c0
000000a0: fd43 7e1e 38bc d6c0 f309 199c 62c5 e8c0
000000b0: 7373 07c5 551a e6c0 8b9e d35e 6d1e d8c0
-47120.49111105042 49266.664512526324 -12046.186906351053 -14773.633889864914 21405.137762390408 56311.2383567481 51059.84615173644 28243.88862267708
-11791.223748143006 25543.819121778197 1887.4246543336862 -42602.18944545118 4621.419363226213 -396.19977864993854 5618.921016660247 33267.97724895521
7991.815380696508 -46586.959852539556 6877.630662992833 -25035.27065202507 -23280.876861158747 -50731.08155490821 -45266.68030140446 -24697.708912758662
