results/qd_mountaincar_20250422-100452/best_net.pt (torch, 17746 bytes, 2 tensors)

weights f8 [8, 2]
-29170.059538467736 31772.86203545095 76.24960077427045 -25542.478849052324 -10377.627463654 37248.99560657264 -7014.539777885999 -20769.967766384867
-5936.602554697651 23278.104084221322 -15022.714229699126 -35162.45332752294 311.31249073732 -71404.98006659548 16044.589517108598 4295.134630200461
00000000: f26e 7acf 837c dcc0 75bd 962b 3707 df40
00000010: 10a3 8675 f90f 5340 dd7e 76a5 9ef1 d8c0
00000020: aea0 ba50 d044 c4c0 a550 02dc 1f30 e240
00000030: 782f e22e 8a66 bbc0 4b6b e2ef 7d48 d4c0
00000040: 7650 0641 9a30 b7c0 a7dd 50a9 86bb d640
00000050: caf7 e06b 5b57 cdc0 adb8 a881 4e2b e1c0
00000060: 7a91 49f6 ff74 7340 784f 5aae cf6e f1c0
00000070: eeee 4b75 4b56 cf40 09f4 1f77 22c7 b040

weights f8 [3, 8]
-41217.316305537934 25232.20573836479 9657.094486361075 34526.00669880153 -22151.73143293036 30126.17506341131 85938.71594862604 30412.576018079413
-48950.80123607545 20379.123323070107 10126.160458696146 23958.61678425009 -36405.13730312393 20680.923757597368 57145.678481483985 26834.482750156913
-3098.1453633359574 0.3061385031971214 7149.18149028652 647.1793925827253 -284.66714831506073 -70.50308854588731 -29567.410235973573 -598.2307149330065
00000000: 9fca 2c1f 2a20 e4c0 143f d12a 0da4 d840
00000010: 5e0b 2118 8cdc c240 b067 e036 c0db e040
00000020: c710 cccf eea1 d5c0 932a 3d34 8b6b dd40
00000030: e78b 8674 2bfb f440 3fef 7add 24b3 dd40
00000040: 8ed6 b9a3 d9e6 e7c0 3d72 86e4 c7e6 d340
00000050: 271a e989 14c7 c340 b5a5 6479 a765 d740
00000060: 5d85 c964 a4c6 e1c0 882f d81e 3b32 d440
00000070: 15cd 1eb6 35e7 eb40 05ea 60e5 9e34 da40
00000080: f32b 106d 4a34 a8c0 35cb d1f2 c597 d33f
00000090: 25bd 2576 2eed bb40 9adf 6065 6f39 8440
000000a0: 472c b6a3 acca 71c0 01e5 4c9a 32a0 51c0
000000b0: 8962 4e41 dadf dcc0 b21f 1281 d8b1 82c0
