results/qd_cartpole_20250423-122002/best_net.pt (torch, 13744 bytes, 2 tensors)

weights f4 [4, 4]
0	0xc68e9dd1	-18254.908
1	0xc703d43e	-33748.242
2	0xc771720c	-61810.047
3	0xc7382203	-47138.01
4	0xc5076aeb	-2166.6824
5	0xc5f8cde5	-7961.737
6	0xc67b827b	-16096.62
7	0xc60e3de8	-9103.477
8	0xc6ed9a67	-30413.201
9	0xc7368406	-46724.023
10	0xc797928a	-77605.08
11	0xc7839963	-67378.77
12	0xc6c14bcf	-24741.904
13	0xc74e2800	-52776.0
14	0xc7bf9d4f	-98106.62
15	0xc78e877e	-72974.984

weights f4 [2, 4]
0	0x47410cda	49420.85
1	0xc6a92b18	-21653.547
2	0x47e8eda2	119259.266
3	0x47cc9638	104748.44
4	0xc76fc6ee	-61382.93
5	0xc70088a4	-32904.64
6	0xc6d23116	-26904.543
7	0xc79ad1bd	-79267.48
