results/qd_acrobot_20250409-131505/best_net.pt (torch, 23082 bytes, 2 tensors)

weights f8 [8, 6]
10256.443324099413 -14075.104423333329 -8853.718998352004 -6694.799148236761 4965.728089911254 11379.309225366438 11315.542673919535 25315.92579071404
2429.4166187737032 17362.097917825275 2309.811189015309 -17076.477049018988 14760.190376028777 6958.769326246418 -14116.941540542164 -4150.51867782647
-4129.381200533239 -3277.0886860981677 11275.67329469026 -9889.52667907194 -9844.00762670155 -10726.271751867327 -25642.26001644219 17385.37448401561
1476.9826129835228 11655.453304068953 4541.647213878812 8932.73817500247 4878.1919073808385 -2732.0833635974254 17693.40687109342 -36770.76926902038
-19191.39277140427 -27817.718780667445 -2537.105889029258 38635.33879736249 28576.795234109104 33263.83828971083 20687.47177651551 28206.795725010743
21496.096681889685 11123.78304633537 468.10649910600335 -5468.930881689551 -5658.957067281155 -5120.180679456832 -3901.6724855383095 5155.305486641644
00000000: 4116 d8be 3808 c440 cb68 be5d 8d7d cbc0
00000010: de53 2308 dc4a c1c0 8b95 fa94 cc26 bac0
00000020: 62b5 1964 ba65 b340 f961 b294 a739 c640
00000030: 66c8 5676 c519 c640 f0b1 2740 fbb8 d840
00000040: e94f 0e4f d5fa a240 5020 4944 86f4 d040
00000050: 41a7 2a54 9f0b a240 c99b f887 1ead d0c0
00000060: c5e0 3d5e 18d4 cc40 529c 90f2 c42e bb40
00000070: 3a86 6684 7892 cbc0 d9ed 11c8 8436 b0c0
00000080: 7baf 5b96 6121 b0c0 7ba6 4368 2d9a a9c0
00000090: 9e39 852e d605 c640 bc46 386a c350 c3c0
000000a0: de68 e9f9 003a c3c0 66e3 c3c8 22f3 c4c0
000000b0: e800 1ca4 900a d9c0 fbcd 8bf7 57fa d040
000000c0: 6c13 1932 ee13 9740 a623 de05 bac3 c640
000000d0: 040b cfaf a5bd b140 2bbb 847c 5e72 c140
000000e0: 9094 d720 310e b340 3d29 a2ae 2a58 a5c0
000000f0: fb0d 2d0a 5a47 d140 8b10 da9d 58f4 e1c0
00000100: 09ac 2a23 d9bd d2c0 eba0 8000 6e2a dbc0
00000110: 563b 1637 36d2 a3c0 fc90 6dd7 6add e240
00000120: d19a 1de5 32e8 db40 93f1 44d3 fa3d e040
00000130: 4920 9631 de33 d440 7098 28ed b28b db40
00000140: 943c 0930 06fe d440 d5c0 dc3a e4b9 c540
00000150: 6715 6838 b441 7d40 112d 434e ee5c b5c0
00000160: a280 5c02 f51a b6c0 2746 0241 2e00 b4c0
00000170: 2544 0650 587b aec0 3a5f 5f34 4e23 b440

weights f8 [3, 8]
-6686.065036988471 20392.617543455774 177.2009350642073 -7803.833174569803 1209.512852257568 -28409.706456938464 20718.543087762955 -300.4060304856495
2447.098012783944 13760.3183325745 -7385.045963481785 -24137.279633772305 5193.436826619819 -12860.826984220865 22774.17723268189 -4732.119877133036
-2927.46536072056 471.23673550875253 -4260.228151724639 18633.604881437153 -8698.63757947359 6040.242309583161 13277.261069357113 7793.735321282297
00000000: 839a 43a6 101e bac0 9afc d485 27ea d340
00000010: 7b2c 5f0f 6e26 6640 2ab9 ed4a d57b bec0
00000020: bd67 2429 0de6 9240 af29 9736 6dbe dbc0
00000030: 302d f3c1 a23b d440 b390 d219 7fc6 72c0
00000040: 424b bb2e 321e a340 5d2e 1fbf 28e0 ca40
00000050: 1443 43c4 0bd9 bcc0 ba0c 85e5 5192 d7c0
00000060: 258e ded3 6f49 b440 7673 9eda 691e c9c0
00000070: 20bf c757 8b3d d640 ee8d 44b0 1e7c b2c0
00000080: 4ca7 c243 eede a6c0 4e3e 2cab c973 7d40
00000090: dac3 2668 3aa4 b0c0 a2a1 60b6 6632 d240
000000a0: d645 349c 51fd c0c0 2f37 0008 3e98 b740
000000b0: 657f b86a a1ee c940 85fb 033e bc71 be40
