results/qd_new_mountaincar_20250422-130537/best_net.pt (torch, 17746 bytes, 2 tensors)

weights f8 [8, 2]
000000 79 e7 2f 6d 14 eb e2 c0 ca 11 6a 07 62 85 04 41
       -38744.63832850656 168108.25362028024
000010 97 b1 13 9a f5 d3 ee c0 1a 88 42 fd 55 8e 0a 41
       -63135.67505821882 217546.7486620553
000020 53 bb 62 0c 52 d5 c4 c0 46 9c 1c 36 91 7c 10 c1
       -10666.641002980678 -270116.3028435152
000030 b6 76 35 76 a7 ec 0a 40 cb 34 08 90 9f fe 12 41
       3.365553782946189 311207.89065630425
000040 3e e3 05 ce 18 4c 29 c0 36 45 5b e1 ff 4e 08 c1
       -12.648626745432576 -199135.98503736564
000050 d3 90 00 74 37 92 06 41 ed 58 40 61 ba cb fd c0
       184902.93164170402 -122043.64874300706
000060 de c0 c3 4c c7 59 d7 40 61 0c 56 d1 c9 d4 00 c1
       23911.11406034312 -137881.22721490546
000070 1b 24 fe 1a 84 43 e5 40 b9 11 51 df 77 a4 fc c0
       43548.128295012015 -117319.49202067302

weights f8 [3, 8]
000000 b6 7d bc 3b a2 a4 06 c1 1e 37 73 0f eb e8 06 c1
       -185492.2791681119 -187677.3825439745
000010 ee b4 ca ce 97 51 f4 40 4c 81 62 13 2b 88 0b c1
       83225.48798628498 -225541.38446522725
000020 f3 84 0a 7d e8 7e 05 41 36 1f 94 11 c2 28 fb c0
       176093.06105522029 -111244.1292916507
000030 f5 ea 50 91 ca f8 f7 40 73 c5 71 ca b7 24 ee 40
       98188.66047755985 61733.7434624535
000040 d1 f6 dd f3 38 f6 d7 c0 7f 59 15 db be 63 f2 c0
       -24536.88988446334 -75323.92848715743
000050 31 a0 80 c0 fc 94 d4 40 97 bd ba b5 3c ce 04 c1
       21075.949249416768 -170439.58873508565
000060 6a d7 89 d5 00 2a e2 40 ea 14 c4 d5 5a 5f ef c0
       37200.02606670449 -64250.8385944756
000070 25 8c 3f da e6 06 be 40 f1 ef e6 3f 84 72 d3 3f
       7686.901767703738 0.3038645385784085
000080 23 a9 49 3b bb 12 f4 c0 dd 83 fb ea 63 4b e2 40
       -82219.70197454518 37467.122434384866
000090 aa d8 51 be cb 25 03 c1 2e a7 9c 76 2d 7b fe 40
       -156857.467929547 124850.84145798974
0000a0 7f 53 e0 c3 ac 8d 08 c1 67 ef 9e e1 3d 98 0a c1
       -201141.59564271194 -217863.73516642602
0000b0 03 00 a9 88 e5 63 d8 40 5a 01 e2 ef 1b b5 a2 40
       24975.586466074 2394.554564535775
