results/qd_mountaincar_20250421-164111/best_net.pt (torch, 15142 bytes, 2 tensors)

weights f8 [6, 2]
000000 bd ee 6c 71 97 6c 10 c1 3d 0e f8 3c 62 5c 12 c1
       -269093.8607671073 -300824.5595400071
000010 ad da cb 13 07 cf 33 40 27 e2 bd 0b d8 b1 18 c1
       19.808701741475193 -404598.0114665352
000020 8d f9 b0 14 11 03 0b c1 cd 00 5c ec 35 f5 12 c1
       -221282.13510317766 -310605.4808197141
000030 33 49 54 62 74 b2 c6 c0 2e f1 6c 9e 66 9d 07 41
       -11620.909250770323 193452.82735622808
000040 98 89 62 de 9d 95 68 c0 b9 66 07 30 00 e7 e6 40
       -196.67552108045197 46904.005862904196
000050 d4 20 b7 5f c7 f9 b2 c0 af 2b 38 52 69 51 07 41
       -4857.778804250254 191021.1651461995

weights f8 [3, 6]
000000 c4 83 cf 32 e3 cb d3 40 e5 d8 63 63 28 1b 08 41
       20271.549976233175 197477.04853028725
000010 e9 1c 7f 8f 58 de fc 40 47 70 5d b9 d2 85 a2 c0
       118245.53503333371 -2370.911570472675
000020 ed 1c ff ba b6 f4 e3 c0 79 2d 2f 2b 94 f3 e6 c0
       -40869.71032672548 -47004.63027151948
000030 06 f9 b3 19 47 6c e0 c0 e1 63 fc 4c 02 9f 11 41
       -33634.221887575506 288704.575181542
000040 a7 85 0e 82 93 9f 07 41 d4 9c 1f 2b 89 b3 fc c0
       193522.43850426117 -117560.57302819501
000050 bd 65 69 97 90 0e f4 c0 f5 36 3f a6 e6 5f f0 c0
       -82153.03696574918 -67070.41558762996
000060 e3 24 01 6c 0e 88 f4 c0 11 2f 35 db f6 5b 01 c1
       -84096.90136827859 -142206.8570350339
000070 ca fe 3b f1 83 22 db 40 90 03 a7 a7 b5 9c 94 40
       27786.061598776643 1319.1773973556446
000080 55 ed 09 86 f0 56 fa c0 a2 6f 4c 99 ac 2a d4 40
       -107887.03272431095 20650.696856602684
